…
Batch 25, stats: 85.808 ± 39.095, avg AR: 0.6817, L1(cumulAR - 0.65): 57.027
Batch 26, stats: 91.619 ± 36.182, avg AR: 0.6766, L1(cumulAR - 0.65): 55.571
Batch 27, stats: 73.463 ± 51.178, avg AR: 0.6823, L1(cumulAR - 0.65): 56.924
Batch 28, stats: 93.531 ± 40.193, avg AR: 0.6727, L1(cumulAR - 0.65): 53.734
Batch 29, stats: 85.734 ± 47.542, avg AR: 0.6778, L1(cumulAR - 0.65): 54.609
Batch 30, stats: 96.351 ± 37.958, avg AR: 0.6718, L1(cumulAR - 0.65): 52.086
Batch 31, stats: 79.823 ± 44.048, avg AR: 0.6836, L1(cumulAR - 0.65): 58.445
--------------------------------------------------------------------------------
Model:  SVAE(
  (fc1): Linear(in_features=144, out_features=128, bias=True)
  (fc21): Linear(in_features=128, out_features=256, bias=True)
  (fc22): Linear(in_features=128, out_features=512, bias=True)
  (fc31): Linear(in_features=256, out_features=256, bias=True)
  (fc32): Linear(in_features=512, out_features=512, bias=True)
  (fc41): Linear(in_features=256, out_features=169, bias=True)
  (fc42): Linear(in_features=512, out_features=169, bias=True)
  (Phi): Linear(in_features=169, out_features=144, bias=True)
  (_encoder): ModuleList(
    (0): Linear(in_features=144, out_features=128, bias=True)
    (1): Linear(in_features=128, out_features=256, bias=True)
    (2): Linear(in_features=128, out_features=512, bias=True)
    (3): Linear(in_features=256, out_features=256, bias=True)
    (4): Linear(in_features=512, out_features=512, bias=True)
    (5): Linear(in_features=256, out_features=169, bias=True)
    (6): Linear(in_features=512, out_features=169, bias=True)
  )
  (_decoder): ModuleList(
    (0): Linear(in_features=169, out_features=144, bias=True)
  )
)

Evaluation: AIS procedure, with config:
chain_length: 1024
mdl_path: outputs/2022-09-07/10-03-20
n_sample: 16
schedule_type: linear
sampler: hmc
hmc_epsilon: 0.8

Log-likelihood: 85.21434 ± 43.76722 per batch, averaged over dataset
Average acceptance rate        : 0.67878 ± 0.00504
Average l1(cumul_avg_AR - 0.65): 0.05462 ± 0.00192
          Time: 667.053 s
…
